real_vs_ai_model.pth (torch, 85292 bytes, 7 tensors)

l1.weight f4 [6, 3, 5, 5]
000000 96 49 cf 3b 8a e8 2b 3d a1 40 b1 bd c9 40 fa bd
       0.006325911 0.041969813 -0.08654905 -0.12219388
000010 34 c2 d3 bd 0c 32 36 bd ed e1 12 3d 26 96 e1 bc
       -0.10339776 -0.044481322 0.03585999 -0.027537417
000020 92 8f 0d 3c a0 e0 8e 3d 2c 36 1d 3d c9 ae b3 bd
       0.008640187 0.069764376 0.03838174 -0.08773572
000030 f5 da aa bc 44 c5 8e bd ac 59 ac 3d 49 7d c2 3d
       -0.02085636 -0.06971219 0.08415541 0.094965525
000040 8d 2e bd bd a9 f9 a5 3c c1 03 cc bc 4c 41 9a bd
       -0.092373945 0.020260649 -0.024904134 -0.07531986
000050 a3 d1 cc bc ed 6a 37 3d 04 f7 c2 3d 55 02 8f 3d
       -0.025002306 0.044779707 0.09519771 0.06982867
000060 3c 5c ca bb 3d 7b 6d bd 86 f9 b3 bd 0e e5 68 bd
       -0.006175546 -0.057978857 -0.08787827 -0.05685907
000070 ad f1 c0 bd 64 20 0d bb 32 ec d3 bd c5 c3 13 bd
       -0.09421096 -0.00215342 -0.10347785 -0.036075372
000080 28 7f 7b 3d 98 d4 75 bd 60 5e 49 bd 95 be 43 bd
       0.061400563 -0.0600172 -0.04916227 -0.047789175
000090 ce e8 dd 3d 96 58 94 bd 42 3f d3 3d 5b d2 23 3d
       0.108354196 -0.07243459 0.103148 0.039995532
0000a0 32 b2 b4 3c fa 92 87 3a 9d 98 69 bd 4b e7 ce 3d
       0.022057626 0.0010343485 -0.05703031 0.101027094
0000b0 5b bc d8 3d 90 6e da bd 50 01 4e 3d fe 1a 42 bd
       0.10582801 -0.106656194 0.05029422 -0.047389023
0000c0 13 3f cd bd 98 cd 73 bd 16 58 f2 bd 33 1b f6 bc
       -0.10021796 -0.05952224 -0.11833207 -0.030042266
0000d0 14 c8 d1 bd 1d 64 61 bb 54 c6 55 3d f1 1a 01 be
       -0.1024324 -0.0034391948 0.052191094 -0.12607934
0000e0 36 b4 38 3d b2 67 dc bc 64 80 d7 3d d1 68 ce bd
       0.045093738 -0.026904915 0.105225354 -0.10078586
0000f0 45 a6 84 3d e9 71 db 3d 39 c0 c8 bd 1e 6c 8e 3b
       0.06477026 0.10715086 -0.098022886 0.0043463847
000100 6d 98 00 bd 02 d9 07 3e 7e 5f eb 3d bb d0 f1 39
       -0.031395365 0.13266376 0.11492823 0.00046122618
000110 c1 8c 52 bc 79 89 ba 3d 20 c2 3b bc 54 45 0f bc
       -0.012850941 0.09108252 -0.011459857 -0.008744556
000120 62 30 d1 bc 1d e2 0d 3d 93 53 8e 3d 61 09 c8 bc
       -0.025535766 0.034639467 0.06949534 -0.024418535
000130 ae ef 38 3d 8b 21 97 3d fd 57 58 bd fc c5 d7 bd
       0.04515045 0.07379445 -0.052818287 -0.105358094
000140 b5 73 ad bd 45 7b 1c bc 02 11 c5 bd 8f fd b4 bd
       -0.08469335 -0.009550874 -0.096223846 -0.08837425
000150 6f 48 05 be 7e c7 ad bd 5e 46 65 3d 51 1a 9f bd
       -0.13015912 -0.08485316 0.05597531 -0.07768691
000160 6c a1 bd 3c ec e6 18 bd 10 91 dc 3d f7 15 af 3d
       0.023148261 -0.0373296 0.10769856 0.08549111
000170 8a c8 cb 3d ff b9 f4 bb c4 18 8e 3d b9 2b 69 bd
       0.09950359 -0.0074684615 0.069383174 -0.056926463
000180 e9 78 3b 3d 96 8e 97 3d 24 ec 31 bd 8c 60 89 bd
       0.045769606 0.07400243 -0.043438092 -0.06707868
000190 68 94 c9 bc ce 49 85 3d 59 56 dd 3c 96 70 c2 bd
       -0.024606898 0.06508218 0.027018713 -0.0949413
0001a0 c0 65 9d bd d6 10 1e 3d c0 2a e9 bd 3d 28 b0 3c
       -0.07685423 0.038590275 -0.11385107 0.021503562
0001b0 4c 5d 95 bd 10 fc 34 bd b4 11 04 3d ce 0e 0e bd
       -0.072931856 -0.044185698 0.032243446 -0.034682088
0001c0 9d 85 b4 ba 34 02 40 bc b9 0c f4 3d 53 15 9c bd
       -0.001377273 -0.011719275 0.11916489 -0.07621255
0001d0 30 5c b5 bd fd eb 6a 3d a7 b5 8e 3d 5f 8f f9 3d
       -0.08855474 0.057353962 0.06968241 0.12185549
0001e0 7c b7 2f bd 84 ad 4f bd 66 8e 9d 3d b4 cd cb bc
       -0.042899594 -0.050702587 0.07693176 -0.02487836
0001f0 8b 3b 02 3e d7 e7 78 bb c2 1a b0 3c 17 3c c3 bd
       0.12718026 -0.0037979984 0.021497134 -0.095329456
000200 5d be 4e 3d cd 68 8b 3d ee f5 81 bd e3 b5 32 bd
       0.050474513 0.068070985 -0.063457355 -0.043630492
000210 ca 41 05 3c ec 05 92 bc 2e 81 05 be 8a 8b ba bd
       0.008133361 -0.01782509 -0.1303756 -0.09108646
000220 28 8d 91 3d 07 f3 b8 bd 7c d9 07 3d d8 02 9e bd
       0.071070015 -0.09030729 0.033166394 -0.07715386
000230 17 df dc 3d fe 4f 9d 3d 3a 00 97 bd 98 69 03 3d
       0.107847385 0.07681273 -0.0737309 0.032083124
000240 92 26 c1 3c ba ea 83 3d 0e 23 e4 3d 4b ba b2 3d
       0.023577962 0.06441255 0.11139499 0.08726939
000250 d1 3f d4 3d 83 58 25 bd 7e ed 9d 3d 3a 56 e9 bc
       0.103637345 -0.040367614 0.07711314 -0.028483499
000260 44 6e ba 3d b5 4b d9 3d 4b 23 ca bd 41 ce ef 3d
       0.09103063 0.10610143 -0.09870013 0.11709262
000270 f3 44 d4 3d c4 ff 9a bd 86 ab 01 bb c8 81 8b 3d
       0.103647135 -0.07568315 -0.0019786074 0.06811863
000280 e8 61 00 be 55 26 9a bc df 78 17 bc 3a 39 8f 3d
       -0.12537348 -0.018817106 -0.0092451265 0.06993337
000290 a1 c0 bf bd 23 5a dd bd 43 89 d1 3c 99 22 42 3c
       -0.09362913 -0.10808208 0.025578147 0.011849069
0002a0 1c 6a 81 3c c5 b1 00 3c 81 1e 4c bc 81 40 67 bd
       0.015797667 0.007854884 -0.012458445 -0.056458
0002b0 e3 80 01 3d b6 1a 49 3b 0e 44 dc bd 84 8b bf 3d
       0.031617057 0.0030686087 -0.10755168 0.09352782
0002c0 3b c0 94 3d 23 f6 56 bd 29 2a ad 3c 55 67 51 bd
       0.072632276 -0.052480828 0.021138268 -0.051123936
0002d0 6f 67 60 bd bc a5 fe 3d a6 70 25 3d bc ee f5 bc
       -0.054786142 0.12433955 0.040390633 -0.030021064
0002e0 77 c0 ea 3d 27 d4 87 3d 0d 26 75 3d 73 4f 79 3d
       0.11462491 0.06632262 0.05985074 0.060866784
0002f0 6f 54 74 bd 7c 87 b2 bd ed 64 1a 3d be 4c 0c 3d
       -0.059650835 -0.08717248 0.037693907 0.034252875
000300 a5 16 c9 3c e8 dc f9 bc a9 5d c4 bc d2 48 94 bd
       0.02454693 -0.030500844 -0.023970442 -0.07240452
000310 fb 2b 98 3d 6e 14 28 3d fc b1 2c 3c 17 d5 ab 3d
       0.074302636 0.04103511 0.010540482 0.08390253
000320 12 cd 78 3d 58 b2 8e 3b a1 b5 b5 bd e0 f3 55 bd
       0.060742445 0.0043547563 -0.088725336 -0.05223453
000330 af c0 f8 bd 37 73 c8 bc 88 c1 89 3c f1 e6 c7 bd
       -0.121461265 -0.024469001 0.016815916 -0.097608455
000340 20 a9 d1 3d 54 66 b7 bc 9e 22 bd bd e5 8e d9 bd
       0.10237336 -0.022387661 -0.09235118 -0.10622958
000350 6a a5 bc bd c1 84 a8 bd 7b 29 ec 3c 60 c2 93 bd
       -0.09211238 -0.08228446 0.028828373 -0.072148085
000360 f8 c5 a7 bd ec c7 5f bd f6 77 9a 3d e4 20 9f 3d
       -0.081920564 -0.05463402 0.07542412 0.07769945
000370 ba 62 c4 3d 48 e2 c2 3d ca e1 49 3d ce c7 79 3c
       0.09589143 0.09515816 0.049287595 0.015245391
000380 e2 6e 7b 3d 09 3b a6 bd d5 90 96 3d c8 23 81 3d
       0.061385043 -0.08116729 0.07351843 0.06305653
000390 b0 c7 a2 bd 50 1f c4 3b 77 97 77 bc d6 dc 59 bb
       -0.079482436 0.005985178 -0.015111796 -0.00332432
0003a0 88 57 d1 3d b7 54 4e 3d 2c a4 9e 3d 36 c5 04 3e
       0.102217734 0.05037376 0.07746157 0.12965855
0003b0 68 e0 df 3d 2a a3 84 3d 5b aa 3e 3c 35 a0 a5 3d
       0.10931474 0.064764336 0.011637296 0.08087198
0003c0 fd 38 68 3d 5c 39 db 3d 29 db b4 3d 30 0b d4 3c
       0.056694973 0.107043 0.08830864 0.02588424
0003d0 0b 9f b4 3d fa ac 2f 3d 88 b0 ba bd 34 7d c3 3c
       0.088193975 0.042889573 -0.09115702 0.023863412
0003e0 15 b5 37 3d c3 d8 cb 3d fc 65 cc bc 1b c7 92 bd
       0.044850428 0.099534534 -0.024950974 -0.071668826
0003f0 1a ec 93 3a 57 24 a3 3d 03 e9 8c 3d 7f 92 f2 3d
       0.0011285574 0.07965916 0.06880381 0.11844348

l1.bias f4 [6]
000000 b3 3b e1 3d 94 e5 7b 3d 5a e4 18 3d 73 4f 66 3d
       0.10997715 0.06149824 0.037327148 0.056228112
000010 19 60 25 bc fe f7 94 bb
       -0.010093712 -0.0045461645

l2.weight f4 [12, 6, 3, 3]
000000 7e 34 f6 bd 85 1e 3c 3b 8f 84 be bc ce 57 d5 bc
       -0.12021731 0.0028704714 -0.023256568 -0.026042845
000010 ee 42 ee bd f3 5f a1 bd d5 ec 4f bd f5 1e d6 bd
       -0.116338596 -0.07879629 -0.05076297 -0.10455123
000020 e7 d1 db bd 8f ca 15 be 8f b8 ab bc bc 80 43 3d
       -0.10733395 -0.14628051 -0.020962028 0.047730193
000030 3a 23 ee 3b c1 45 bc bd 25 75 8f 3d a1 87 16 be
       0.007267383 -0.09192992 0.070047654 -0.14700176
000040 50 3d a4 bd fc 55 03 be 67 cc 39 3d 04 90 15 bd
       -0.08019507 -0.12825769 0.04536095 -0.036514297
000050 63 26 e7 3d 2e 33 d9 3d 70 92 6e bd 68 75 c2 bd
       0.112866186 0.10605465 -0.058245122 -0.0949505
000060 a1 5f d5 bd 87 b3 0c be b5 d0 c1 bd ea 45 b7 3d
       -0.104186304 -0.13740359 -0.09463636 0.08948882
000070 d3 df f3 3d a8 d3 e2 3d ce a2 f9 bd a0 a8 de bd
       0.119079255 0.110755265 -0.12189256 -0.108720064
000080 71 e4 fb 3c 24 36 ab bd 34 3f fb 3c 31 dc bb 3d
       0.030748578 -0.08359936 0.030669786 0.091728576
000090 c2 9d 28 be 8f 5c ef bd 7d 55 9e 3d cf 87 83 3d
       -0.1646643 -0.11687576 0.07731149 0.06422388
0000a0 c8 72 24 3d 51 14 99 3b 7e d2 34 3b 21 c7 24 bd
       0.040148526 0.0046716114 0.0027591283 -0.040228967
0000b0 fd b6 99 3d 38 c5 55 3d 1d 7e 9d bc 23 6d e4 bd
       0.07505605 0.052190036 -0.019225175 -0.11153629
0000c0 31 8f 3b 3d 86 4e d0 3d e1 09 b0 bd 78 df d6 3d
       0.045790855 0.10171227 -0.08595634 0.10491842
0000d0 15 73 78 bd 4e 41 06 be 2b a0 4e bd 0f 25 53 bd
       -0.060656626 -0.1311085 -0.050445717 -0.051549014
0000e0 2f cc c4 3b f5 ad 07 bc 6d 6f ec bd bd b0 95 3c
       0.006005786 -0.008281221 -0.1154469 0.018272752
0000f0 d5 95 32 bd a1 ae dc bd 16 94 0b be 52 53 54 3d
       -0.043599922 -0.10775495 -0.13630709 0.051837273
000100 9c c1 f8 bd 8e a3 d8 3d 9a 43 ae 3d f6 de 6c bd
       -0.12146303 0.105780706 0.08508988 -0.05782982
000110 c9 ea 92 bd 8a 3a 03 3e 0a cd c5 3d b4 4f 34 bd
       -0.07173688 0.128153 0.09658249 -0.044021323
000120 a0 1e be bc 2e 1a 41 3d 2e 42 dd 3c e2 9f 2a bc
       -0.023207963 0.047144108 0.027009096 -0.010414096
000130 f2 53 7e bd b3 7b 82 bd ce da 97 bd af 56 e6 bd
       -0.062091775 -0.0637125 -0.074147806 -0.11247002
000140 a5 89 a4 bd ef 6c 7e bd d8 b0 12 3c c9 ee f4 3d
       -0.08034066 -0.062115606 0.008953296 0.11959607
000150 c5 dc cd bc 35 76 bd b9 9e aa da bc 51 6f fc bd
       -0.025129685 -0.0003613696 -0.026692685 -0.123259194
000160 e4 e1 a1 3d 0e d8 90 bd 0f ce c0 bc 35 96 a0 bc
       0.07904413 -0.07072459 -0.023535756 -0.019602874
000170 a0 45 05 3e 05 2d cd 3d f8 04 9b 3d a5 b8 e7 bc
       0.13014841 0.100183524 0.07569307 -0.028286288
000180 5b 20 c5 3d ba 43 fa 3c 45 9c b2 ba 41 f4 30 3c
       0.09625312 0.030549873 -0.0013626894 0.010800422
000190 9b 71 3e bd f3 56 c1 bd 45 18 3e 3d 6d 65 2b 3d
       -0.04649506 -0.09440412 0.046409864 0.041844774
0001a0 1b 09 72 bc 04 5f e5 3d d2 3b dd bd 6c c6 7b 3d
       -0.014772679 0.111997634 -0.108024254 0.061468527
0001b0 9c ff cd bd 4c 26 41 3d 84 8c de 3d 44 28 09 be
       -0.10058519 0.047155663 0.10866645 -0.13394266
0001c0 ac 66 95 3d 6c e7 a3 bd 96 47 3a bd a0 bc ed 3c
       0.07294974 -0.080031246 -0.045478426 0.029020607
0001d0 b6 d9 d3 bd f5 13 f5 bd f0 b7 8e 3d c0 1b 50 3c
       -0.103442594 -0.11966697 0.06968677 0.012701929
0001e0 80 ef 80 bb dc 6e dc 3d f2 3d be bd a0 c7 07 bd
       -0.0039348006 0.10763332 -0.09289159 -0.03314936
0001f0 67 74 db bd 4d b9 f4 bd 40 3c 47 bd 0a aa be bd
       -0.10715561 -0.11949406 -0.048641443 -0.09309776
000200 b8 ef 86 bc 40 3b 6d 3b e6 ec 9d bd c3 d3 0a be
       -0.016471729 0.0036198646 -0.077112004 -0.13557343
000210 b6 76 d3 3d 20 41 d2 3c 6c 39 a9 3d fe f1 03 be
       0.10325377 0.02566582 0.082629055 -0.12885281
000220 00 ac 8c 3d f1 62 00 be 8c 66 9e 3d 3a 25 95 3d
       0.06868744 -0.12537743 0.07734403 0.07282491
000230 00 0a c7 b9 78 09 f0 3d 99 31 c4 bd 50 d0 dd bc
       -0.00037963688 0.11720556 -0.095797725 -0.02707687
000240 21 86 05 be a2 90 be bd 5a 62 b2 3d 1c 7b 87 bd
       -0.13039447 -0.0930493 0.08710165 -0.06615278
000250 a4 32 45 bd 60 f1 9e bb 55 98 00 be 8c dc c2 bd
       -0.048143998 -0.0048505515 -0.1255811 -0.09514722
000260 26 f1 0b bd 69 56 93 bd 45 dd b4 bd 58 98 6e bd
       -0.034165524 -0.07194216 -0.08831266 -0.058250755
000270 a0 44 9f bb fc 07 c0 bd 28 cf c8 3c fe 8e f6 bd
       -0.0048604757 -0.09376523 0.024512842 -0.12038992
000280 96 d3 0e bd 08 84 38 bc f6 e7 94 3d 7c 83 02 3d
       -0.034869753 -0.011261947 0.072708055 0.031863675
000290 d0 96 91 3c 1e 7b e1 3d e2 43 91 3d c0 a6 1e bb
       0.017772108 0.11009811 0.07093026 -0.0024208277
0002a0 66 4b 61 bd 62 5d 35 bd 7a c4 79 bd e4 dc 14 3d
       -0.055003546 -0.04427851 -0.06097839 0.03634347
0002b0 24 9e 05 3d f8 d3 47 3d 9a bc 0a 3e 66 51 0b be
       0.032621518 0.048786134 0.13548508 -0.1360527
0002c0 be 63 b5 3d 54 6a 41 bd ae dd ce bd 64 e1 9e 3d
       0.08856915 -0.047220543 -0.10100876 0.077578336
0002d0 d8 c6 78 3d e4 49 c1 3d ce 09 03 be 46 27 be bd
       0.060736507 0.09437922 -0.12796709 -0.092848346
0002e0 12 bd 2a bd 08 27 9d 3d 30 ed 78 3c 0c ee ee 3d
       -0.041684218 0.0767346 0.015193269 0.116664976
0002f0 ba 22 0a 3e 44 c5 0e bd 24 1d 30 bd 04 4d f9 3d
       0.1348981 -0.034856096 -0.04299654 0.12172893
000300 38 af ba bc 48 fb 89 3d c9 b7 d6 bd d2 05 72 bd
       -0.022788629 0.06737381 -0.10484273 -0.059087582
000310 18 b1 9f bd 50 88 71 3c 0c 2a 26 bd e8 36 c1 3d
       -0.0779745 0.014741972 -0.040567443 0.09434301
000320 92 3c 86 3d 18 ce 95 3c c0 1d ad 3c c5 69 07 be
       0.065545216 0.01828675 0.02113235 -0.13223942
000330 eb 78 aa bd 0e 83 07 bd c0 25 51 bd 36 6e 48 bd
       -0.083238445 -0.033083968 -0.05106139 -0.04893323
000340 b2 a4 a9 3d c0 82 90 bb f0 c8 64 bc 84 d0 96 bd
       0.08283366 -0.004410118 -0.013963923 -0.0736399
000350 48 3e af bd 0a 06 92 bd 80 5c e8 3a 70 cd f9 bc
       -0.08556801 -0.07130058 0.0017727762 -0.030493468
000360 31 2c 36 3b 63 44 c4 3d 42 12 68 bc b7 78 f1 3d
       0.0027797336 0.09583356 -0.014164509 0.11790603
000370 c4 bd 53 3c 41 6e 4c bd 69 38 29 3e 35 af 31 3e
       0.012923662 -0.049909834 0.16525425 0.17351992
000380 d1 e0 34 3e 29 c8 a6 3d 84 37 28 3e da 15 e5 bd
       0.17663886 0.08143646 0.16427428 -0.111858085
000390 4f aa 0f 3e d5 86 98 bd b3 7a e9 3d 36 e1 ef 3b
       0.14029811 -0.07447592 0.11400356 0.0073205484
0003a0 56 d2 06 3d 75 22 52 bd 01 00 01 3e d3 99 68 3d
       0.032915436 -0.051302392 0.12597658 0.056787323
0003b0 8d 90 c0 3b 87 cb b9 bd 7c ed 09 3e f4 d0 0b 3e
       0.005876607 -0.09072023 0.134695 0.13653928
0003c0 05 37 80 3b 0b 80 9a 3c 09 a0 bc 3d e7 79 ef bd
       0.003912809 0.018859884 0.09210212 -0.11693173
0003d0 e6 e7 aa bd 1d 30 a0 3c ef 32 d0 3d f2 70 06 3e
       -0.08345012 0.019554192 0.10165965 0.13129023
0003e0 02 58 29 bd 01 2f f9 3d 62 85 b5 bc 7f c9 35 3d
       -0.041343696 0.121671684 -0.022158328 0.044381615
0003f0 41 6b c6 3d ac 90 f8 bc 68 4f c0 bd 11 d1 ac 3c
       0.09688426 -0.030342422 -0.093901455 0.021095784

l2.bias f4 [12]
000000 64 ea e2 3d 75 b5 b3 bd a0 9b ab 3b 26 b3 d9 bd
       0.11079863 -0.087748446 0.005237058 -0.10629873
000010 9b 18 a0 3d 67 f2 40 3c 14 4b 75 bd 33 a4 b0 bd
       0.07817193 0.011776543 -0.059886053 -0.086250685
000020 0c 61 05 be cf c2 bc bc af e9 5d 3b 1f 4b fd bd
       -0.13025302 -0.02304211 0.003386121 -0.12367844

lin1.weight f4 [100, 192]
000000 50 7d f8 3c b3 85 38 bd 59 b7 a5 bc 83 84 4a bd
       0.030333191 -0.04504938 -0.020229029 -0.04944278
000010 e8 f6 1b 3c 0b af d1 3c 09 b2 b2 bd 85 f4 60 bc
       0.009519316 0.025596162 -0.08725364 -0.013730173
000020 94 02 54 3b a3 f8 87 bb c4 77 98 3c 69 3c a5 bd
       0.003235017 -0.004149513 0.018611796 -0.08068163
000030 32 82 1c bd ea d2 b1 bd e4 0b 52 bd 00 80 59 3c
       -0.0382101 -0.08682807 -0.05128087 0.0132751465
000040 ae 3f 46 bd 98 8e 23 bd 84 f0 93 bc c0 02 47 3c
       -0.048400573 -0.03993091 -0.018059023 0.012146652
000050 5f da 09 bd 5b 8d 86 bd 36 16 3f bd c0 d4 ba ba
       -0.03365552 -0.0656993 -0.04665204 -0.0014254078
000060 d0 64 62 3d dd 8d 20 bd 16 dc 57 bc d5 ee 8a bd
       0.055271924 -0.03919779 -0.013175031 -0.06783835
000070 40 bc d8 3c 00 11 59 ba 66 91 8b 3d 30 dd 1b 3d
       0.026456952 -0.0008280426 0.06814842 0.038052738
000080 ac b8 5a bd 41 b7 57 bd 92 ef 61 bd 1c a5 5f 3d
       -0.053398773 -0.052665 -0.055160113 0.05460082
000090 4d a1 75 bd de 7e 1a 3d dc 24 7f 3d a2 e9 8b 3d
       -0.05996828 0.037718646 0.06229101 0.06831671
0000a0 60 fa 6e 3d 3a 73 d5 bc 30 29 ed 3b 58 0e 87 3d
       0.058344245 -0.02605592 0.007237576 0.06594533
0000b0 fc f4 bf 3c 76 57 66 bd d4 94 99 3c 90 6f 92 3d
       0.023432247 -0.056235753 0.018747725 0.07150185
0000c0 cc c3 1b 3d b4 9c 38 3d ea 4a 11 3d 68 8f ed 3c
       0.038028523 0.04507132 0.035471834 0.028999045
0000d0 80 e8 5f 3d 1c 28 67 bd 0e c3 c8 bc 24 25 f8 3c
       0.05466509 -0.056434736 -0.024507072 0.030291148
0000e0 e8 5a 7e 3c 40 b8 85 ba 80 c1 dd 3a 9e d3 90 bd
       0.015524603 -0.0010202006 0.0016918629 -0.07071613
0000f0 80 4f 51 3d 8a 4c 99 bc 50 58 b3 bb 58 25 21 3d
       0.051101208 -0.018713254 -0.005473174 0.039342254
000100 4e 6b 3e bc 0e a9 8a 3d 5e f2 03 bc a7 07 ac 3c
       -0.011622263 0.06770526 -0.00805339 0.020999743
000110 05 b5 61 bc 1f 41 25 3d fb e5 80 3d 71 cd 68 bc
       -0.013776069 0.040345307 0.06293865 -0.014209137
000120 25 77 3c bd 2a bf 27 bd 92 ff 02 3d 73 e3 ab 39
       -0.046012063 -0.040953793 0.031982012 0.00032785124
000130 bf ce 96 3d 95 d5 88 3d 7a 94 a4 bc 0d e8 60 bd
       0.073636524 0.066813625 -0.02009033 -0.0549088
000140 2b 49 42 3d 95 e0 85 bd 2d 5b fe 3b 58 8e f6 3c
       0.04743306 -0.06536976 0.007762334 0.030097172
000150 2e f4 bb bc 4a 40 88 bd 33 b4 fb b8 73 ee b1 bd
       -0.022943582 -0.06652887 -0.000120021774 -0.08688059
000160 07 9f 97 bc c0 88 15 3d e5 1f 2c bd 12 5c 8b bd
       -0.018508447 0.036507368 -0.042022604 -0.068046704
000170 b5 a2 66 3d 9f 5b 2f 3b 43 ad 6f 3d e7 c3 35 bc
       0.056307513 0.0026757491 0.058514845 -0.01109407
000180 1f 78 72 bd 76 55 45 3d 37 2b ff bb 0a 7a be bc
       -0.059196588 0.048177205 -0.007787134 -0.023251552
000190 34 34 d7 3b 9d f1 f3 bc 98 d8 83 3d 1b d8 06 bd
       0.0065675024 -0.029778296 0.06437796 -0.032920938
0001a0 36 ef 8c ba 30 30 60 bd 10 2b 1d 3d 89 4c 02 3d
       -0.0010752443 -0.054733455 0.038371146 0.03181127
0001b0 ba 3d 38 bd c6 92 74 bd f8 81 2c bd 50 3d d3 bc
       -0.044980742 -0.059710287 -0.042116135 -0.025786072
0001c0 ce 14 44 bd d2 3d f7 3c 50 a3 5d 3b fc f7 37 3d
       -0.047871403 0.030180845 0.0033819266 0.04491423
0001d0 0b 13 88 3d 60 37 88 bc 14 1b 44 bd f8 d3 e7 bc
       0.06644257 -0.016627967 -0.047877386 -0.028299317
0001e0 5e 8f 47 bd bf a0 61 3c 40 ed dd bc 8a 00 01 3d
       -0.04872071 0.013771235 -0.027090669 0.031494655
0001f0 50 1b 7d 3d 94 88 20 bc a7 26 12 bd b4 46 f8 3c
       0.061793625 -0.009798188 -0.035681393 0.030307151
000200 67 2f 9d bd 43 3a 25 bd 48 5d 56 bc 61 c5 26 bd
       -0.07675057 -0.040338766 -0.013083763 -0.04071558
000210 70 a0 42 bd 9f e2 a2 bd bd 34 1c 3d 0f 58 47 bd
       -0.047516286 -0.07953381 0.038136233 -0.048667964
000220 9a b0 4b bd 8b 56 ec ba cc 51 e1 3b 90 51 96 bc
       -0.049728967 -0.0018031163 0.006876206 -0.018349439
000230 50 aa cf bd 9b 83 13 bd c6 f0 92 bc a7 77 5a bd
       -0.101399064 -0.03601418 -0.017937075 -0.053336766
000240 e4 17 42 3d 76 60 68 bd 6b dc 6f 3d 45 6d 5c 3d
       0.047386065 -0.056732617 0.058559816 0.053815145
000250 ea fe 12 bd 0a 3e 98 bc 89 ee 1f 3c 86 a9 71 bd
       -0.035887636 -0.01858427 0.009761461 -0.05899956
000260 92 4b ec 3c b9 b3 5d 38 a7 e4 d1 3c dc 39 b1 bc
       0.028844628 5.2857886e-05 0.025621725 -0.021634035
000270 2a 77 51 bd 7a b0 15 3b a4 8e 62 3c 8f 05 58 3d
       -0.051139034 0.0022840784 0.0138279535 0.052739676
000280 c8 45 d1 3d 20 b4 80 3c 61 ab 92 3b f0 45 93 3d
       0.10218388 0.01571089 0.0044759964 0.07191074
000290 0c d9 d8 3d f9 32 9f 3d fc 7e b5 3d a0 02 bd 3d
       0.105882734 0.07773394 0.08862111 0.09229016
0002a0 52 32 e3 3d 1f 52 f6 3d bb 22 dd 3d 07 2a cc 3d
       0.11093582 0.12027382 0.1079764 0.099689536
0002b0 5b 1d e3 3c 7a bb 92 3d 97 47 01 3d e4 89 f0 3d
       0.027723959 0.071646646 0.031562414 0.117450505
0002c0 c6 28 34 bd ad 82 0d bd 7e fb 4f bd 28 a8 1e 3d
       -0.043984197 -0.03454845 -0.05077695 0.038734585
0002d0 8b 37 a2 bd 76 65 ad bd 71 2c 34 bd d2 10 81 3b
       -0.0792075 -0.08466618 -0.043987695 0.0039387727
0002e0 5a 97 0f bd c4 4c ba bd 10 f3 d9 bb 6e 5f 08 3d
       -0.03505645 -0.09096673 -0.0066512898 0.033294134
0002f0 1e e9 51 bd 07 a8 36 3b 50 a2 4d bd ff 91 bf bd
       -0.05124771 0.0027871148 -0.05020362 -0.093540184
000300 c5 cb 87 bd 3f 65 dc bc dc f3 24 bc b1 33 02 3d
       -0.06630663 -0.026903747 -0.010067906 0.031787578
000310 71 97 61 3d 84 37 9e bd c1 42 32 bd 73 e3 bf 3c
       0.055076066 -0.077254325 -0.043520693 0.023423886
000320 99 84 c8 bc 4b c6 6d bc 46 f5 56 3d 2c f2 23 3d
       -0.02447729 -0.014512609 0.052480005 0.040025875
000330 36 be 12 3d f5 d5 93 3a 7d 08 8a bd 38 52 22 bd
       0.03582593 0.0011278974 -0.067399 -0.03962919
000340 de a3 44 bd e0 c4 ad 3b 26 89 31 3d 10 ea ed bb
       -0.04800784 0.0053030103 0.043343686 -0.0072605684
000350 69 6b 4a bd b2 d5 3c 3d 07 3e 19 bd 04 db 77 bc
       -0.04941884 0.046102233 -0.03741267 -0.015127901
000360 01 cd 0e bd 26 9c 2f bd e4 b4 3c 3d 85 8b 91 bd
       -0.034863476 -0.042873524 0.04607095 -0.07106689
000370 25 f1 83 bd b8 8a 02 bc 20 3f 7c bb 5c 0c 70 bd
       -0.06442479 -0.007967643 -0.0038489774 -0.058605537
000380 04 a3 42 bc 40 ec d0 3a e0 64 e4 3c c4 a9 2c bd
       -0.011879686 0.0015939549 0.027880132 -0.04215409
000390 7c 0c 82 3d e4 5c b7 3c 6a 28 92 bc b0 69 0e 3c
       0.063500375 0.02238316 -0.017841537 0.00869219
0003a0 44 aa 85 3d e0 79 2c 3b ac bb 1e bc 40 b6 a4 bb
       0.06526616 0.002631776 -0.009688299 -0.0050266087
0003b0 80 8f 01 3c 18 2f 00 3d 78 5f 16 bc 48 3b 1b 3d
       0.007907748 0.031294912 -0.009178035 0.037898332
0003c0 ac 79 46 bc 1c ff 2f 3d c0 28 43 bd 30 03 f9 3b
       -0.01211397 0.0429679 -0.047646284 0.007599257
0003d0 ce 00 4e 3d 42 71 6c bd 3a 01 56 bd d0 4c f5 3b
       0.050293736 -0.0577252 -0.052247263 0.0074859634
0003e0 b8 8e 8f 3c e0 86 cd bb 44 db 40 3d 00 00 60 38
       0.017524108 -0.006272182 0.047084108 5.340576e-05
0003f0 3c f8 97 3c 99 70 6c bd 38 a0 12 bd da 9f 93 3d
       0.018550985 -0.05772457 -0.035797328 0.07208224

lin1.bias f4 [100]
000000 52 25 82 3d bc f3 fb 3c f8 e2 9f bc 59 43 28 3c
       0.063547745 0.03075587 -0.019517407 0.010269963
000010 08 a3 1e 3c 0b a7 82 bc e5 a8 a7 bc ce 25 7a bd
       0.009682424 -0.015948793 -0.020466277 -0.06107121
000020 e2 70 8d 3c f0 26 98 bc aa 2a 8c bd fd 48 10 bd
       0.01726574 -0.018573254 -0.06844075 -0.035225857
000030 25 70 29 3c 34 04 8b bd 53 ed 37 bd 36 69 35 bd
       0.010341679 -0.06787911 -0.044904064 -0.04428979
000040 9e 37 8b bb 94 8c cd 3c 1f 62 b0 bc 9c c6 4e bd
       -0.0042485734 0.025091447 -0.021531163 -0.050482377
000050 05 44 f3 3c e5 a7 41 bd 6a 94 87 bc 87 ac 72 bd
       0.02969552 -0.047279257 -0.016550262 -0.059246566
000060 68 87 f5 bc 06 c7 5e bd 57 26 6f bc 11 c9 47 bd
       -0.029971793 -0.054389022 -0.014596543 -0.048775736
000070 c6 a5 86 bb f7 38 0e 3b e3 84 5d 3d a2 4d f7 3c
       -0.004109117 0.0021701434 0.05408181 0.030188385
000080 24 ee 70 3d e3 79 29 bd ca 87 29 bd 7c 10 f9 3c
       0.05882086 -0.041376006 -0.041389264 0.030403368
000090 b7 8b 70 bd 75 9b 25 bd 57 42 82 bd c9 14 76 bc
       -0.058726992 -0.04043146 -0.063603096 -0.015019604
0000a0 92 88 55 bd 2e 60 39 3d a1 27 07 3c 39 f5 17 3d
       -0.052132197 0.04525774 0.008249194 0.037099097
0000b0 8a 95 5a 3c b3 1b c3 3c 26 13 eb 3b e4 94 57 3c
       0.013341317 0.023816919 0.0071739135 0.013158057
0000c0 1f e5 bc bc d0 cb 5b bc 09 15 04 3d 1c 88 e0 3b
       -0.023058472 -0.013415292 0.032246623 0.006852163
0000d0 20 f1 da bc 7a 13 0a 3c 81 b1 91 3d 44 97 a2 ba
       -0.026726305 0.008427495 0.07113934 -0.00124047
0000e0 cd fa 77 3d fb eb 51 3d 11 4f ec bb 1c af 08 bd
       0.060541917 0.05125044 -0.007211574 -0.033370122
0000f0 5e 19 74 3d 86 06 90 3d 5d 7d fa bb e8 bd 48 3d
       0.059594505 0.07032494 -0.007644339 0.049009234
000100 f6 5a 26 3d 9e 16 5e bd 35 c3 3b 3d cc 34 92 3d
       0.04061409 -0.05422079 0.04584046 0.071389765
000110 7a 46 d8 3c 06 4e 87 3d 63 e3 8c 3d ff 55 f3 3c
       0.026400793 0.06606679 0.06879308 0.029704092
000120 14 db 4c bd 67 c7 20 3d ad 5a 30 39 16 c9 91 3d
       -0.050013617 0.039252665 0.00016818447 0.07118432
000130 dc fd 4c bd d6 c5 0d 3d a4 45 4e 3d 20 2c 2b 3c
       -0.050046787 0.0346125 0.050359383 0.010447532
000140 e0 76 94 bd 0c 43 13 bd fc e1 ad 3c 31 5f 58 3d
       -0.07249236 -0.035952613 0.021225922 0.052825157
000150 1b 15 93 bc a5 c9 73 3c 0a 40 9a 3c 8c ba 9b 3c
       -0.0179544 0.014879619 0.018829364 0.01900985
000160 f8 5f 08 bc 37 ff a9 3c c6 6d 6a bc 3b f6 1f 3d
       -0.008323662 0.020751579 -0.014308399 0.039053183
000170 66 65 34 3c e7 98 71 3c 7c 24 02 bd 6b 9c 14 3d
       0.011010503 0.014745927 -0.031773075 0.036281984
000180 56 4b 60 3d 97 be 4f 3d 33 4b 84 bd c2 ab 85 bd
       0.054759346 0.05071887 -0.064596556 -0.06526901

lin2.weight f4 [1, 100]
000000 6a 6c 64 bd 5d cf e5 bc 42 80 b9 3d 70 c2 be bd
       -0.055767454 -0.02805298 0.09057666 -0.0931443
000010 8e ee 0f bd 72 88 2d 3d 2b 64 ab bd 4e 07 6f 3d
       -0.035139613 0.042366453 -0.08368715 0.058356576
000020 bc 91 b1 bd a0 9b b1 3d a7 11 44 3d 38 a9 3e bd
       -0.08670375 0.08672261 0.047868397 -0.0465481
000030 70 3e 81 3d 66 cc d0 3c ac 7e b0 3d ce d9 e6 3d
       0.06310737 0.02548809 0.08617911 0.11272012
000040 66 f3 21 3d 66 99 f0 bc 00 94 ac 3d 42 ba 26 bd
       0.039538763 -0.029370021 0.08426666 -0.040704973
000050 a9 71 a3 3d f5 12 d2 bd 5f 8c 92 bd 57 21 a0 bd
       0.07980663 -0.10257522 -0.0715568 -0.07818859
000060 27 35 ec 3d db 0f 80 3d 83 4d e2 3d d7 81 9a bd
       0.115335755 0.06253024 0.110499404 -0.07544296
000070 37 b6 14 be d9 f6 c4 3d 09 f6 55 bd 4c 73 36 bd
       -0.14522634 0.09617395 -0.05223659 -0.04454355
000080 40 9e 5f 3d fd 92 d2 3d bc fb 26 bd e1 48 4d bd
       0.05459428 0.10281942 -0.040767416 -0.05011833
000090 8e 0c 18 3d 92 a1 c9 3d cd 72 aa bd a4 df 28 bd
       0.037121348 0.0984527 -0.08322678 -0.041228905
0000a0 d0 7f 95 bd 2d 5f dc 3d b9 c0 d1 3d 6a 20 38 bd
       -0.07299769 0.10760341 0.10241837 -0.044952787
0000b0 76 4e 0f be 32 24 b3 3c 28 66 14 3e a0 5e b4 3d
       -0.13994774 0.021867845 0.14492095 0.08807111
0000c0 70 20 c9 bd d8 f3 e1 bd e8 09 c4 bd c0 44 dc 3d
       -0.0982064 -0.11032838 -0.09572202 0.107553005
0000d0 93 0e 9f 3d 31 89 c0 3d 82 31 16 3e ad 0e 0b 3e
       0.07766452 0.09401167 0.14667323 0.13579817
0000e0 87 8d f5 bd f2 19 8e 3d d0 6d 8f bd f1 a6 d3 bd
       -0.11989885 0.069385424 -0.07003367 -0.10334576
0000f0 80 9f f6 3d 74 9a d1 bd 20 a0 40 3d ea 5a a0 3d
       0.12042141 -0.10234538 0.047027707 0.078298405
000100 39 d5 b7 3d 11 4e 8f bd 91 ae d7 bd 29 ae 9d 3d
       0.08976216 -0.06997312 -0.10531343 0.07699234
000110 4d d9 90 bd cc b9 a2 bd fa 04 d5 3d 7c 0a 22 3d
       -0.07072697 -0.07945594 0.1040134 0.03956078
000120 b7 37 69 3d 47 9b 91 bd 0e f8 85 3d ab 02 02 bd
       0.0569379 -0.07109695 0.06541453 -0.031740826
000130 ae 4a 8f 3c c0 13 98 3d 1d 12 8d bd ff be aa bd
       0.017491665 0.07425642 -0.068882205 -0.08337211
000140 ad 56 9e 3d 7d ad f7 3d fc 0b 97 3d 12 ed d8 bd
       0.07731376 0.12093637 0.07375333 -0.105920926
000150 f0 f3 98 3d f6 67 dd 3d 79 55 d6 bd 1a 68 82 3d
       0.074684024 0.108108446 -0.10465521 0.06367512
000160 bc c5 0a bd 19 25 be bd d0 d6 d2 bd c3 b7 10 3e
       -0.03387998 -0.092844196 -0.102948785 0.141326
000170 84 38 e6 3d 20 be 61 3c 3b 63 b9 bd ea 22 bb bd
       0.11241248 0.0137782395 -0.0905213 -0.09137519
000180 06 c8 38 bd aa 94 b3 3d b9 a8 bc 3c 74 34 6c 3d
       -0.045112632 0.0876859 0.023029672 0.05766721
